➔ py model
Using TensorFlow backend.
_________________________________________________________________
Layer (type)                 Output Shape              Param #
=================================================================
dense_1 (Dense)              (None, 200)               157000
_________________________________________________________________
dropout_1 (Dropout)          (None, 200)               0
_________________________________________________________________
dense_2 (Dense)              (None, 100)               20100
_________________________________________________________________
dropout_2 (Dropout)          (None, 100)               0
_________________________________________________________________
dense_3 (Dense)              (None, 60)                6060
_________________________________________________________________
dropout_3 (Dropout)          (None, 60)                0
_________________________________________________________________
dense_4 (Dense)              (None, 60)                3660
_________________________________________________________________
dense_5 (Dense)              (None, 10)                610
=================================================================
Total params: 187,430
Trainable params: 187,430
Non-trainable params: 0
_________________________________________________________________
Train on 60000 samples, validate on 10000 samples
Epoch 1/5
59904/60000 [============================>.] - ETA: 0s - loss: 0.9273 - categorical_accuracy: 0.6955Epoch 00001: val_categorical_accuracy improved from -inf to 0.93590, saving model to ./checkpoints/dnn_1513415361/weights-improvement-01-0.94.hdf5
…
